{"model_config":{"class_name":"Sequential","config":{"name":"sequential","layers":[{"class_name":"InputLayer","config":{"batch_input_shape":[null,28,28,1],"dtype":"float32","sparse":false,"ragged":false,"name":"conv2d_input"}},{"class_name":"Conv2D","config":{"name":"conv2d","trainable":true,"batch_input_shape":[null,28,28,1],"dtype":"float32","filters":16,"kernel_size":[5,5],"strides":[1,1],"padding":"same","data_format":"channels_last","dilation_rate":[1,1],"groups":1,"activation":"relu","use_bias":true,"kernel_initializer":{"class_name":"GlorotUniform","config":{"seed":null}},"bias_initializer":{"class_name":"Zeros","config":{}},"kernel_regularizer":null,"bias_regularizer":null,"activity_regularizer":null,"kernel_constraint":null,"bias_constraint":null}},{"class_name":"MaxPooling2D","config":{"name":"max_pooling2d","trainable":true,"dtype":"float32","pool_size":[2,2],"padding":"valid","strides":[2,2],"data_format":"channels_last","activation":null}},{"class_name":"Conv2D","config":{"name":"conv2d_1","trainable":true,"dtype":"float32","filters":36,"kernel_size":[5,5],"strides":[1,1],"padding":"same","data_format":"channels_last","dilation_rate":[1,1],"groups":1,"activation":"relu","use_bias":true,"kernel_initializer":{"class_name":"GlorotUniform","config":{"seed":null}},"bias_initializer":{"class_name":"Zeros","config":{}},"kernel_regularizer":null,"bias_regularizer":null,"activity_regularizer":null,"kernel_constraint":null,"bias_constraint":null}},{"class_name":"MaxPooling2D","config":{"name":"max_pooling2d_1","trainable":true,"dtype":"float32","pool_size":[2,2],"padding":"valid","strides":[2,2],"data_format":"channels_last","activation":null}},{"class_name":"Dropout","config":{"name":"dropout","trainable":true,"dtype":"float32","rate":0.25,"noise_shape":null,"seed":null,"activation":null,"data_format":null,"padding":null}},{"class_name":"Flatten","config":{"name":"flatten","trainable":true,"dtype":"float32","data_format":"channels_last","activation":null,"padding":null}},{"class_name":"Dense","config":{"name":"dense","trainable":true,"dtype":"float32","units":128,"activation":"relu","use_bias":true,"kernel_initializer":{"class_name":"GlorotUniform","config":{"seed":null}},"bias_initializer":{"class_name":"Zeros","config":{}},"kernel_regularizer":null,"bias_regularizer":null,"activity_regularizer":null,"kernel_constraint":null,"bias_constraint":null,"data_format":null,"padding":null}},{"class_name":"Dropout","config":{"name":"dropout_1","trainable":true,"dtype":"float32","rate":0.5,"noise_shape":null,"seed":null,"activation":null,"data_format":null,"padding":null}},{"class_name":"Dense","config":{"name":"dense_1","trainable":true,"dtype":"float32","units":10,"activation":"softmax","use_bias":true,"kernel_initializer":{"class_name":"GlorotUniform","config":{"seed":null}},"bias_initializer":{"class_name":"Zeros","config":{}},"kernel_regularizer":null,"bias_regularizer":null,"activity_regularizer":null,"kernel_constraint":null,"bias_constraint":null,"data_format":null,"padding":null}}]}},"conv2d":{"kernel":[[[[… "bias":[… "conv2d_1":{"kernel":[[[[… "bias":[… "dense":{"kernel":[[… "bias":[… "dense_1":{"kernel":[[… "bias":[0.0336995,0.07700043,-0.02138883,-0.04548741,-0.08508203,-0.007702548,-0.01244445,-0.02697154,0.0492925,0.02663814]}}